params.npz (npz, 26614 bytes, 6 tensors)

w1 f8 [4, 784]
0	0x3fa1bca643515cb0	0.0346424061942171
1	0xbfa7718f6b733d9e	-0.045788270822977525
2	0x3f94677f80c0ff9e	0.01992606376029437
3	0xbf842fe0c5c5633b	-0.009856945071690873
4	0x3f9d6b9d90ef178a	0.028730833025995696
5	0x3f9c9901b950a4a0	0.027927424369555198
6	0xbf75d4517d95d0c9	-0.005329435656097733
7	0xbf98b916dbd02a94	-0.02414355961449617
8	0x3f807efeb766513f	0.008054723712839105
9	0x3fa25d353e35ff5a	0.035867370456797956
10	0xbfb1e9c7fae7db5f	-0.06997346759440635
11	0x3f9d5549443edc77	0.028645653524759198
12	0xbf8734da84ade226	-0.011331278966950253
13	0xbf80bb94bec6bf1d	-0.008170282432586934
14	0xbfb0a2a053bc0f2d	-0.0649814800672714
15	0xbf52d4a766946124	-0.0011493334553219292
16	0x3f95e2642546a324	0.021371426367895144
17	0x3f9df5e1801b8d5a	0.029258273548191972
18	0xbf9603e9b6c465e4	-0.021499301700805065
19	0xbf8f78869df85e49	-0.015366603561275076
20	0x3f9874b12bdf26ee	0.023882644942012136
21	0x3f96ccfbdf70704c	0.02226632643952113
22	0xbf9220d10d1d6061	-0.017703310418568544
23	0xbf9659d3b28862ea	-0.021827037593626843
24	0x3f968dd5c78dfd08	0.02202543287739636
25	0xbf955e2d832c2010	-0.020867072230458972
26	0xbfac04605847e07f	-0.05472088887830839
27	0x3f9a40b164969a9e	0.02563740898554078
28	0xbfa59680c616d1b5	-0.0421638719375638
29	0xbf8502d653550363	-0.01025931779679618
30	0xbf905e4d76630fc2	-0.015984735823408654
31	0x3f8bb84618e82eef	0.013535068163967405
32	0x3f6748bcce54dd3a	0.0028423011414379336
33	0xbf813bcbee9fcc57	-0.008414834232075714
34	0x3f7e7b61cf3c11d9	0.00744188505973794
35	0xbfa0ad8e9514089c	-0.032574134538678495
36	0x3fa13cf8f83fcd34	0.03366830854784056
37	0x3fa28ec7afd334c9	0.03624557515431943
38	0xbf7deee1347822ab	-0.007307891566150341
39	0x3f734ed01672e636	0.0047138336587351694
40	0x3fb466d0773be663	0.07969382201181356
41	0xbf8a6c180f01ab6c	-0.012901485403025346
42	0xbf6cd1ec4ba8e4eb	-0.003518067850816755
43	0xbf9fa70740d96408	-0.030910600026206964
44	0xbf213edf235cb756	-0.00013157342771690877
45	0x3f91268f99cc6dc8	0.016748660814398325
46	0x3faaf8a348f4224d	0.05267820611522165
47	0xbfa1d1575a62c7d5	-0.03480027178137816
48	0xbf817e1e9d142ef4	-0.008541335266748253
49	0x3f9f19c361b2bdc7	0.030371716344857604
50	0xbfa080ca6a19862e	-0.03223259492075346
51	0xbf9ca7c497210662	-0.027983733867819167
52	0xbf7d01d59ddbf487	-0.007081827583303674
53	0xbf83b840e2ada675	-0.009628779332803131
54	0xbfa3fefdcfa9ac50	-0.039054805373631596
55	0xbfa287c76adc0c83	-0.03619216136396466
56	0xbfa7cdb7dd4cf8c1	-0.046491380466691996
57	0x3f982faf1cfec2f8	0.023619400162433885
58	0x3f65af907cf6a8a5	0.002647192195316244
59	0xbf959f58210ea997	-0.0211156625916061
60	0xbf62c2bb22cb147e	-0.0022901206014887534
61	0xbf537b462023931e	-0.0011890587634805837
62	0xbf99bcf657bd74ee	-0.025134896378735165
63	0xbf8888fb374effe7	-0.01198002111948422
64	0xbfb42f524ffd1a4b	-0.0788470692906255
65	0xbf933bd408a7bfdc	-0.018782914188648067
66	0x3fa0229b630bd9c4	0.031514030304538504
67	0xbf9ad1eea2e10c95	-0.02619145268569108
68	0x3fa8d51bebc515e1	0.04850089314508544
69	0x3f9d7703220bf168	0.02877430815986895
70	0xbfae335276a69224	-0.058985306724285175
71	0xbfa41f0c01713a70	-0.03929936902624298
72	0x3fa2d3c6f6a31336	0.03677198181825363
73	0xbfa906a1a2c1018b	-0.048878718488143034
74	0xbf974a3325d96089	-0.022743987259986418
75	0xbf9a60640dc44996	-0.025758326854949574
76	0x3facf01f0887e3b2	0.056519479552611954
77	0x3fb3d128ce0d030e	0.07741026907480039
78	0x3f9bc23f607fbc5a	0.027108183159665657
79	0xbfa153791b2b8d9a	-0.03383997399012202
80	0xbf8c1b345f6f864b	-0.013723763620819748
81	0x3f9d0e0f31c320e6	0.02837394467567913
82	0x3fb01e4e926941fe	0.06296244692317285
83	0x3f91d8bd1b2c6572	0.017428355010542025
84	0xbf959aa249228760	-0.021097694124029842
85	0xbfbb59917a64d4cd	-0.10683545339709895
86	0x3f6bee6bf2511bd5	0.0034095867472703025
87	0x3f9205d8f7c327c7	0.017600431558811438
88	0x3f9fe038951fa522	0.031128772832663583
89	0xbf82058074e8a488	-0.008799556319973215
90	0xbf969faead9f75fa	-0.02209351477346464
91	0xbf9e79fef6c5134a	-0.029762252627978193
92	0xbf94664d9baf267c	-0.019921505572517692
93	0xbfa07cf990dd2505	-0.032203482564520804
94	0xbfb7f65d21bcc47c	-0.09360296319643341
95	0xbf95967a66c341d5	-0.02108184101308715
96	0x3fb9429ddff7d1cc	0.09867274015397881
97	0xbf921edac7312ff0	-0.017695825965617418
98	0x3f9b12d7a6361d8c	0.02643906547521406
99	0x3f616d3f013e61b6	0.002127287918437494
100	0xbfa06c3c0ae370cb	-0.03207576401629949
101	0x3f9159e64ff0bb3f	0.016944502476856412
102	0xbfafe57affec143e	-0.06229767202425095
103	0xbfa2682297b18bcb	-0.03595073796966338
104	0xbf7dc02dd64cbaa8	-0.0072633543502848355
105	0xbf8bfd1b03518a88	-0.013666354216359325
106	0xbfa17eae7cd073b4	-0.034169628845325845
107	0x3f9142495e39f366	0.016854425788995007
108	0xbf749ceb0f25f7dc	-0.005032461357016484
109	0xbfa2203e9ce0d392	-0.03540225663201747
110	0xbfb0103a9c68d6de	-0.0627476341113282
111	0xbf9175671c5d1bdf	-0.017049418550666103
112	0x3fb9c0f6b79e8fdd	0.1006006429948338
113	0xbfa0b8aa4ef27d38	-0.0326588841792223
114	0xbf8d1c26d4e5918a	-0.014213851329892408
115	0x3f8c225908a1ad71	0.0137373882064
116	0xbf8016f9bd4fe305	-0.007856322374196542
117	0x3f9145414834f38b	0.01686574938979705
118	0x3f50b045815846a7	0.0010185889017332668
119	0x3fb69b6bf0f0859a	0.08830904609978632
120	0x3fae3fcd0da41654	0.05908051291957564
121	0x3fb1569f4d8282e3	0.06772800104455316
122	0x3f9595df16306bb5	0.021079526643102493
123	0xbfb02eac544919bb	-0.06321217592003496
124	0x3f9286998c435978	0.018091582475642437
125	0xbfab9e6e36340e75	-0.05394310390150007
126	0xbf92dfcb19f8ebcf	-0.01843182893774636
127	0x3f885853ebf5559e	0.011887221945168499
128	0x3fa04b04525485bd	0.031822333383626035
129	0x3fade01e8e1b5ad3	0.058350519988086845
130	0xbf6c5d78fa8bf4cd	-0.003462539946097998
131	0xbfb251d64dfc55e9	-0.07156123546550187
132	0x3fa6276d40539937	0.0432695523284558
133	0xbfb305ac61aee6f0	-0.07430531868785883
134	0x3fa5f223596c237d	0.042862991967985466
135	0xbfbc1369e444f655	-0.10967122862799646
136	0x3fa60a4b42141871	0.04304728681204118
137	0x3f913e8d4a31dd7f	0.016840179112902028
138	0x3f8986aa62b5ee70	0.012463885438356942
139	0xbfa2e3d2dc9ab5fc	-0.03689440672802033
140	0xbfa0b2fb20687a5e	-0.0326155163822832
141	0x3f6df8086ba6e8b9	0.0036583103621668747
142	0x3fb10053132bc5f8	0.06641120164911019
143	0x3fa6ee1cd1feb984	0.044785404810101986
144	0x3fac8373d53e0a4d	0.05569040277534452
145	0xbf2935d2440f3e4f	-0.00019233886453527907
146	0xbfa01f7fe6e7158a	-0.03149032300602091
147	0xbfaa66b6ab6bb3ca	-0.05156489222085943
148	0x3fa662e462fe464f	0.043723237117899154
149	0x3f928a5b4ff4d5f0	0.018105913882399294
150	0xbf7c2cbd291bcf2c	-0.006878603847997582
151	0x3f4ff05fc10a2a92	0.0009746997403266725
152	0x3f91af0d3fa4fd63	0.017269331941176868
153	0x3fa9e07a45449913	0.05054075332218324
154	0xbf7b9c1ff9ed7857	-0.00674068918928413
155	0xbf852890842fab59	-0.010331276926043452
156	0xbf9f2e362bd1cee6	-0.030449720787557498
157	0x3f81f2552f3ccb99	0.00876299429328302
158	0x3f8c6b57583327c0	0.013876612071175631
159	0x3fb1e813c1dd5222	0.06994746668835508
160	0x3fb083bac2c81128	0.06451003318222048
161	0x3fa11d882deb145c	0.03342843590284225
162	0xbf9b9394ea5d0d8a	-0.026930167011653995
163	0xbf25ac037cf2763d	-0.00016534369067226938
164	0x3fb052ea229ff962	0.06376517625173997
165	0xbf80419ac660f8fc	-0.007937630824127677
166	0x3f94dbb2022b4916	0.020369321234121683
167	0xbfb1cd6ef33a14e3	-0.0695409148994091
168	0xbfb03a2f5475dbc8	-0.06338783084889521
169	0x3f880a751e9ddba4	0.011738696095319252
170	0x3f7950bd8d5fb7b5	0.0061805157074398724
171	0xbf9bf3ce5dc409f5	-0.027297234032639357
172	0xbfa1c9a33f595d79	-0.034741498454134274
173	0xbf971ed88fe7ec54	-0.022578605445215352
174	0xbf94c9ed371b30ce	-0.020301538933197354
175	0xbfb54a5e0eef7bb0	-0.08316600670467156
176	0xbf48a7d28f239c80	-0.0007524278755938335
177	0x3f93fe27f40d4bc7	0.019524215956447735
178	0xbf91ff5b71a81863	-0.017575672924089136
179	0x3f9f794ec73dd77e	0.030736189757099457
180	0x3f8c4ee448393e78	0.013822349027719158
181	0x3fa62cc29753a668	0.043310242626671436
182	0x3f8c39203e7df973	0.013780834109408535
183	0x3fa5e6f16fee6e12	0.04277758113240905
184	0xbf9f3d62b9a26c98	-0.030507605152348377
185	0x3fa73cad7d913b12	0.045384809091606595
186	0x3fa30bec57d13218	0.037200341911191426
187	0x3f8cb9c5a4b39f93	0.01402620705489691
188	0xbf8f430295f37c3c	-0.015264530373711442
189	0xbf7256b6dd6744d5	-0.004477228465888679
190	0xbfa0d590559657ba	-0.03287936253325037
191	0x3fb1fef715f0993c	0.07029670987740116
192	0x3fa018b0d347256e	0.03143837527347669
193	0x3f53c3fcbd618ea2	0.001206394973927973
194	0xbfacd9436b0c6833	-0.056345087830962724
195	0x3f93473327d9cfe5	0.018826293284703772
196	0xbf9101068f927421	-0.016605474961228
197	0xbf91e4b91dd0c61b	-0.017474071926875206
198	0x3fa1ceee90fd2fb9	0.03478189010510797
199	0x3f7758bc6c4636ce	0.005699859645017914
200	0xbf89ad0b0f05b269	-0.01253708495706825
201	0x3f85c361d95f509b	0.010626568266083594
202	0xbf9e5b005b95f794	-0.02964401778216759
203	0xbf5eb9af4f7ac440	-0.0018753253952292909
204	0xbfa3615f3310cf68	-0.03785226343498388
205	0xbf62867dba0b7c03	-0.0022613959884973957
206	0xbf9ff340c33ec918	-0.031201373974632934
207	0xbf989e78f225c60b	-0.024042024402154676
208	0xbfa640fbb810cebb	-0.04346453306098171
209	0x3f7c1d303a4d176f	0.006863773717503337
210	0xbfad0f22b43dfa36	-0.05675610017987191
211	0xbfa43afa7744d514	-0.039512469348134044
212	0x3f92e8143b9070f1	0.018463436255942992
213	0x3f9ea76dd0becc20	0.029935565820505272
214	0x3fb20d231017ad74	0.07051295416720454
215	0xbf772041f6e52a0a	-0.005645997689792024
216	0xbfac4b71411a3807	-0.055263079831192434
217	0xbf9bf4d5b97a692c	-0.02730115837639706
218	0xbfa7da354d4dad5c	-0.04658667153020232
219	0xbf8397212169fad2	-0.009565600235189296
220	0x3f8216f08beb6274	0.008832816381457699
221	0xbf9288ddcb9afe92	-0.018100228836145656
222	0xbf9f51bd8a035743	-0.030585252331398093
223	0xbf9c86de02c1a4e4	-0.027858227651823678
224	0xbfb4f106065e3452	-0.0818027272745934
225	0xbf8ac8959f3b7195	-0.013077896997338448
226	0x3fa5bde93a76d1aa	0.042464531313643875
227	0xbf719c891fcb0026	-0.004299674645778883
228	0x3f72d4a4515e1634	0.004597322336740418
229	0x3f915fd9a5eda424	0.016967201950510838
230	0xbf9a8034c6207c1a	-0.025879692642885123
231	0x3f515d94f55d8a4f	0.0010599093124815833
232	0x3f701bcdc9f59ccb	0.003932765829950567
233	0x3fa134e24ef85471	0.03360659803380706
234	0x3f8fa066fe61134d	0.015442661893880017
235	0x3fa3145ead5a2680	0.03726478448977577
236	0x3fb432b584c9cf26	0.07889875881101868
237	0x3fa53f8398f7946b	0.041500198767416695
238	0xbf88f24ebc3585a2	-0.012180914992032058
239	0x3f85f07e5933b135	0.010712611291147848
240	0xbfa187f9bcc54884	-0.03424053601578783
241	0xbf7c6f310c559bb5	-0.006941978067834966
242	0xbf9912bc29f3b875	-0.024485530911015425
243	0xbfa04f6f6794de34	-0.03185604228422925
244	0xbf94195acfd91ec9	-0.01962797063450131
245	0x3f905db225ea5cfe	0.015982421459367117
246	0xbf95efc79000e7d0	-0.021422498859671013
247	0xbf9280e8f822435e	-0.018069877762687418
248	0xbf8ee71fc775a557	-0.015089271807215239
249	0x3f9975c163e22e4b	0.024863263818174535
250	0x3f65f4565877f0af	0.002679985660277571
251	0x3fb00ef4b722e83d	0.06272820921995588
252	0xbf999455e1da6fce	-0.024979917440404446
253	0x3fa46b349488462f	0.03988041222704585
254	0x3f81356e3ed3fd11	0.00840269211994252
255	0x3fa0aeb48020dc1c	0.03258289398257139

w2 f8 [1, 4]
0	0x3fdfaad2e88cb95c	0.4948012610428998
1	0x3fd29cd0dcf3a716	0.2908212812168228
2	0xbfe4927a5a388fe2	-0.6428806078079072
3	0x3fd8f54cb81df0d9	0.3899719045655395

w3 f8 [1, 1]
0	0xbffc69eaa15d9463	-1.77585852654854

b1 f8 [4, 1]
0	0x3fd40c45bc8e1f41	0.31324904836263917
1	0xbfebb342378739b9	-0.8656321606193195
2	0x3fe152b272db2a25	0.5413448565753397
3	0xbfebdce7d062709f	-0.8707160062799807

b2 f8 [1, 1]
0	0x3fd8d0197002cfce	0.38770137728283494

b3 f8 [1, 1]
0	0xbfddf3d7c26a35e1	-0.46800798402622773
