params.npz (npz, 472550 bytes, 6 tensors)

w1 f8 [72, 784]
000000 4a ea 1c 59 2f d2 9c 3f a0 2c d9 f2 6c 86 96 3f
       0.028145541967413736 0.02199716789463635
000010 53 9c 86 de d4 c7 90 bf 28 12 ee 92 7f 46 af 3f
       -0.01638729675474011 0.061084734617029846
000020 a5 50 22 d4 fa 67 a1 3f ae 22 fa 83 f9 95 90 bf
       0.033996427912968565 -0.016197107963793193
000030 2d 12 64 17 00 41 a8 3f f0 2b e5 00 82 3b 96 3f
       0.047370913367590674 0.02171137934173467
000040 34 9b 81 9f 22 83 a6 bf d5 e3 9d 34 5d 7c a8 3f
       -0.043969232531529207 0.047823822663253836
000050 bd 2a 50 b5 76 95 9a bf f0 84 2e 1d 15 09 a3 3f
       -0.025960783783413478 0.03717866879675025
000060 90 b7 13 55 8c f3 9a 3f b1 d4 0f 26 7d 45 96 3f
       0.026319687550248327 0.021749453971967984
000070 ab c9 2d da 45 d8 a0 bf 8a f0 2e ad f9 3b 8b bf
       -0.032900030978356774 -0.013297987554203656
000080 54 7e 30 f1 5b f7 99 bf f8 c4 80 10 fa a2 a2 3f
       -0.025357662769350434 0.03639966441586212
000090 d4 45 e5 b8 9d dd b8 bf f8 f8 72 d2 6f 2d 89 bf
       -0.09713159336140303 -0.01229369507779808
0000a0 97 b5 90 33 c4 e8 a3 3f 6e 19 68 ad 3c dd 94 3f
       0.03888524178942559 0.020375202258969542
0000b0 a0 04 17 11 dd 92 88 bf c8 25 50 99 2e 88 9f bf
       -0.011998869976084514 -0.030792930705535487
0000c0 cb e6 a8 ff 5d 0c a9 bf fb 12 9c a9 89 7c a9 3f
       -0.04892247911307165 0.049778272585205806
0000d0 e3 dd c3 a2 ac 4b ab bf d1 15 45 3c f3 7b a0 3f
       -0.05331172453764645 0.03219566450801959
0000e0 b5 ac 2e 2f 0f c0 9f 3f 41 d8 e0 71 58 db 67 bf
       0.031006085638790554 -0.002912209266493299
0000f0 60 be 50 50 19 be 98 3f c6 c6 1f 46 0d 96 9a 3f
       0.02416266968447045 0.025963027386700664
000100 26 f2 59 a6 98 23 a5 bf ff 00 18 4d 9c 7f 97 bf
       -0.04128720312744276 -0.02294773312132836
000110 f9 5b 71 ce 47 5b 71 bf 5f c8 23 5a a2 03 b1 bf
       -0.004237442487542425 -0.06646170330694322
000120 c7 96 82 a4 03 dc a1 bf e0 3f e5 f5 fb 81 9e 3f
       -0.03488170035533993 0.02979272545172751
000130 6b 5a 01 b2 ca ce 7d 3f 78 14 c9 d7 85 13 a1 3f
       0.007277290133137808 0.033352072325706084
000140 d0 6c 48 32 bf 14 96 bf e9 00 49 3b 0d df 8f 3f
       -0.02156351799395112 0.015562156078090488
000150 f3 5e 48 25 06 87 b5 3f 88 d7 c9 93 6c cf 92 3f
       0.08409155283186091 0.018369385261813004
000160 59 66 20 06 8a 44 b1 3f 13 3b 19 03 54 c9 9d bf
       0.06745207452368031 -0.0290883185282907
000170 21 5f 99 6c 2e d4 9c bf 9b 91 26 c2 19 e7 ac bf
       -0.02815315759502746 -0.05645065779688992
000180 e4 b9 b0 a6 24 4e 76 3f ce 04 5c 33 b1 4d a3 bf
       0.005445616882794078 -0.037702119368995576
000190 0a 32 3a e5 c7 66 af 3f b6 fa a7 de 6f d4 95 bf
       0.06133103058991558 -0.02131819530949982
0001a0 01 ae 7f 08 a1 e8 aa 3f fc de 15 08 46 d4 a1 3f
       0.052556068694539 0.03482264374446051
0001b0 cc e2 1b e8 5e a4 71 3f 65 cb fc 02 e0 05 b0 3f
       0.004307146767808145 0.06258964608131874
0001c0 50 52 af 97 75 06 a1 bf 09 c6 a7 bc aa df ad bf
       -0.03325240589734746 -0.05834706833764975
0001d0 17 1e 1c b1 0d 17 78 3f ca 2b 7b 95 10 cb b0 bf
       0.005881360515338516 -0.06559852265779323
0001e0 81 2d 39 74 f5 4e a3 bf fa 7c 58 8c 6d 05 a2 bf
       -0.03771178287260125 -0.035197661764181334
0001f0 cb 93 e8 1e 3d 8b a9 bf 18 c5 dc a3 21 47 a6 3f
       -0.04989043237973297 0.04351143956444953
000200 a3 95 15 a0 90 39 99 3f 1b 37 fc 11 5b 50 82 bf
       0.024633655329486037 -0.008942328916897993
000210 94 73 4a 70 e1 47 b0 3f 47 f2 9c b0 a6 22 a2 3f
       0.06359681121325728 0.03542061716004646
000220 5a 52 05 29 d1 eb bb 3f 96 cd 0a 06 93 10 8b 3f
       0.10906703235134199 0.013215206739323897
000230 80 a5 07 d9 fd e8 aa bf 7c a9 cd db d0 90 9a 3f
       -0.05255883478441614 0.025943053642018196
000240 d2 79 d0 a0 dc c5 77 bf 2c f2 f8 09 ac 99 a0 3f
       -0.00580393011935461 0.03242242452367736
000250 89 26 5b 4e 05 ba 8d 3f c3 f1 32 b0 5c 43 ab bf
       0.0145149626290675 -0.05324830675951688
000260 47 b4 0e 28 ff 0d b4 bf 41 71 fd 18 36 13 a2 bf
       -0.07833857276882937 -0.03530282073072267
000270 40 cc ac 4b cc c7 91 bf d7 c8 c6 e8 d8 e1 82 3f
       -0.01736373149760717 0.009219832042479599
000280 fe 0a 1d 5d 1c 56 81 bf 7a bd 48 b0 51 c6 ab bf
       -0.008465024558636621 -0.05424742962747593
000290 7d cd 8f 83 35 7d a1 3f b6 77 22 94 46 c7 7f bf
       0.03415839415529385 -0.007758403489928447
0002a0 c0 e4 10 a5 8f 10 ac 3f 51 d4 21 62 00 2c 9b bf
       0.05481385126081184 -0.026535039891730176
0002b0 ac b3 13 8c 86 8b 90 bf 63 d6 10 03 9a cb 65 bf
       -0.01615724782907406 -0.002660561375274638
0002c0 a3 05 38 e5 b2 f8 be bf 08 95 76 c6 d9 b3 b5 bf
       -0.12098234268343915 -0.08477555365842104
0002d0 46 91 49 a7 2a 44 97 bf 50 8d 2c 71 c7 b9 a4 3f
       -0.02272097250023932 0.04047988182562767
0002e0 9a 35 58 5e 14 5e 8e bf 9c 48 cc 12 91 3f b4 bf
       -0.014827880028884622 -0.0790949507611764
0002f0 d6 f6 05 65 9d 04 ac 3f 1e eb 7c 52 72 81 b8 3f
       0.05472270830339958 0.09572519792429232
000300 bd 7d 81 86 70 8d 7a 3f da 14 fe 3c e4 55 ab bf
       0.00648254351844407 -0.05338967556512282
000310 c9 ab 0f e2 ba d5 a7 bf 9c 6e 24 e2 1a 8d aa bf
       -0.046552505584109456 -0.05185779581571845
000320 6f 39 af 9a f8 27 9b 3f 0f c4 f4 02 22 4d 8d 3f
       0.026519665185156634 0.014307275500501175
000330 20 2c 35 f0 fe 30 a8 3f cc 03 3f c5 ce 2b 93 3f
       0.047248808691243704 0.01872180060286492
000340 78 0b 29 5a 15 21 9c 3f b8 fc 07 5a 9c 03 b0 3f
       0.027469953182172685 0.06255509565379469
000350 6e 5e cb 77 0c 1a b0 bf 02 70 88 89 89 15 a0 3f
       -0.0628974716631718 0.03141431621426706
000360 d6 e7 b4 33 c1 af 88 bf 95 6a 16 c4 ef 3d ab 3f
       -0.012053975477659334 0.05320691364905376
000370 4c a8 89 b0 51 ed b5 3f b5 9a cf 06 37 ef 9c 3f
       0.08565245208743127 0.02825628260679976
000380 25 5a e0 2f d0 9d 94 3f fb 58 b3 58 31 2e b0 bf
       0.020133259699003276 -0.06320484557668131
000390 0b 23 45 f0 c7 8c b4 3f f0 a9 2d 49 c5 e7 96 bf
       0.08027314773529441 -0.02236850985665656
0003a0 02 03 cc f0 95 90 90 3f 39 a5 16 40 ee 31 a5 bf
       0.016176550695493404 -0.041396565745638055
0003b0 e1 51 3f 0b e6 68 b1 bf 6f 1a 73 0a c1 4a a9 3f
       -0.06800687574952448 0.049398453260029444
0003c0 c9 69 41 4a 5f 8f 9c 3f 2c 56 f6 9e 19 97 84 bf
       0.027890671641537943 -0.010053825534480053
0003d0 5d 0d 54 d5 0a 4d 7f bf 38 dd ea 54 b9 90 6b bf
       -0.007641832654602024 -0.0033649081954895375
0003e0 9f 96 5b a0 14 2e a9 3f 65 3a 9f 2d c0 0d 96 bf
       0.04917969186298631 -0.021536829742951364
0003f0 0b 12 22 5c da be 9d 3f 26 08 17 3a dd fa af bf
       0.029048358796460543 -0.06246081670862251
000400 45 09 ba 3b c9 16 50 3f 2e 68 30 a1 79 46 aa 3f
       0.0009819951218622152 0.05131893246307616
000410 95 4e 2a 23 33 08 81 bf 1c de 0b 44 97 33 a7 bf
       -0.008316421042116754 -0.04531548219341294
000420 50 c9 0e 38 b9 41 9a 3f d8 c1 1b 41 cb d1 8f 3f
       0.02564134030007753 0.015536868977023596
000430 b8 d4 55 0e 05 94 91 bf 49 90 62 c4 41 0d 93 bf
       -0.017166213035541417 -0.018605258571043035
000440 17 97 a0 cc 5b b5 94 bf ed 7b 89 df f5 6e a9 3f
       -0.020223078121623574 0.049674685990559776
000450 80 6f 70 c1 c5 0e a8 bf d8 d6 66 75 8a 83 93 bf
       -0.046987705100234756 -0.019056476035720887
000460 7a 8b a1 f4 8a e8 a4 3f ce fe d2 75 0f 11 b5 bf
       0.04083666073054011 -0.08229157091681857
000470 d8 66 23 63 6f bd ac bf 28 93 d8 2f 7f 74 a1 3f
       -0.05613277516540699 0.03409192523057519
000480 27 31 72 c4 06 90 a2 3f ee 43 22 3e fc 2e 99 3f
       0.036255084495765914 0.024593297283505615
000490 0f 82 0c 74 d7 29 64 bf eb 94 c8 db 4a bf 88 bf
       -0.002461357886559996 -0.01208361132837373
0004a0 f4 22 48 56 fc b6 9f 3f 0a 77 16 b2 c8 cd 95 3f
       0.030971472517225387 0.021292816037763486
0004b0 81 c3 17 2a 21 f1 ad 3f 01 f1 e4 d6 c7 3e b0 3f
       0.058480297458920034 0.06345795628016405
0004c0 16 4b c7 ad 8b 03 b0 3f bd 7a 09 43 b1 0a 73 3f
       0.06255410187376884 0.004648868970064055
0004d0 c9 4d 25 44 4c d0 af bf 9e be fc 3d 4e 46 a7 3f
       -0.062136061972207175 0.04545826441460331
0004e0 94 2b 3a 55 c7 2f a7 3f 46 2e 52 35 0a 33 82 3f
       0.04528639712687901 0.008886413337925291
0004f0 66 c2 6e 26 b5 66 a2 bf 83 c0 64 38 fb 5c 9d 3f
       -0.03593984693668943 0.02867500812243452
000500 54 31 3c 74 60 d1 8a bf ff 9e c7 83 e1 f1 a1 3f
       -0.013094667002882567 0.0350485299457528
000510 f8 09 71 40 36 f6 66 bf 2b 9d 11 52 02 c1 98 3f
       -0.0028029498676300744 0.024173771151621153
000520 89 1f cd 04 91 82 99 3f 8b e2 21 03 b5 24 b3 3f
       0.024912134092374614 0.07477885557626444
000530 96 f4 ac e8 23 13 5b 3f 62 b0 69 ab 6d 05 51 3f
       0.0016525126145119687 0.0010388918869024479
000540 c9 a3 d8 a2 3b 19 75 bf 43 8d 9f 5f 51 14 b6 bf
       -0.005151017144762579 -0.08624752602149947
000550 9e 76 6f e0 fe a3 8a 3f 8d 88 ae 9a c5 09 96 3f
       0.013008109306549994 0.021521651807809895
000560 9b 56 82 7b 75 b4 a1 3f e9 b9 fa e8 d3 46 a1 bf
       0.03457991726569994 -0.03374349802958305
000570 6f bf e7 6c b0 82 81 bf 1c a9 7d 29 3e 11 9c 3f
       -0.008550051044011046 0.02740952614059565
000580 91 47 a9 c1 d5 e4 ab 3f a6 fb a1 eb bd f8 aa 3f
       0.05448024739293012 0.052678999913943245
000590 fc a8 ad 07 f6 81 98 3f af 67 46 ce 33 28 ab 3f
       0.023933262079858672 0.05304109471326456
0005a0 3e 8c 76 5a 10 2a a1 bf 7d e9 76 c5 cd 2a a2 3f
       -0.033524046938758975 0.03548281703429532
0005b0 83 5e b5 d7 10 09 b4 3f b0 18 21 24 79 47 99 3f
       0.0782633329994216 0.02468671114936488
0005c0 25 37 bf b7 e3 a8 9c bf a0 c1 9f 31 7e e9 6c 3f
       -0.0279880123996953 0.003529306862212603
0005d0 70 ae b6 49 17 69 86 3f b8 00 e2 0f bf f1 84 bf
       0.010942632615147135 -0.010226719543652826
0005e0 bb b5 c6 18 a2 8e 99 bf 29 06 d2 df 75 b8 b1 3f
       -0.024958164941997412 0.06922089304318803
0005f0 33 4b be 17 57 c7 a7 3f b2 25 a8 35 10 6d 96 bf
       0.04644272007785446 -0.021900418543770513
000600 fe e9 aa 97 49 6a b0 3f fd ef 7d 76 e2 9e b2 3f
       0.0641218180925662 0.07273688691014964
000610 e9 11 2d 5b f4 2f 6a 3f 3e 7b 97 2f c5 f7 9a 3f
       0.0031966946202450675 0.026335793523567512
000620 ce 01 a4 9e 0b 17 9e 3f be 7f 15 88 72 59 3f 3f
       0.029384786183983817 0.0004783539407835455
000630 2a aa 62 d1 f5 41 87 bf 27 02 f1 71 88 ab aa bf
       -0.011356277897296502 -0.05208994284521778
000640 45 29 21 8a f1 31 a3 bf 16 2f e7 46 49 1e 8e 3f
       -0.03749041377212107 0.014706203914918652
000650 91 c1 e7 a0 29 25 87 3f a9 25 54 3e b2 bb 92 bf
       0.01130135080617903 -0.018294129423372194
000660 f7 c4 28 3a 1e 57 99 bf 32 fa 1f 97 a6 df 91 bf
       -0.02474639158225941 -0.017454722379620154
000670 da e5 5b 91 1c 45 9a bf ac 9e e8 46 cb 73 6e 3f
       -0.02565426480484754 0.003717324281087139
000680 f3 12 6b 51 04 33 81 3f e5 55 96 89 3b a6 a9 bf
       0.008398088202178999 -0.050096378846472146
000690 35 75 1a 06 3d fe 79 bf 53 d4 90 ee 6c 86 85 3f
       -0.006345976232890839 0.010510302572678187
0006a0 0c 28 d9 36 4c f8 b0 3f 4b 4c 2b f8 9d 56 9b 3f
       0.06628872241086031 0.02669760539249592
0006b0 c0 c0 a7 e3 8b 04 86 bf 03 e9 da 34 ee 8d 8d 3f
       -0.010750859150875036 0.014430867183695023
0006c0 15 b6 69 51 61 26 94 3f bc 1a 5a 81 d2 67 ac 3f
       0.019677658647586044 0.05547960118297143
0006d0 3e 4f d3 07 1d 96 80 3f 83 08 dc da e9 4e a1 3f
       0.008098818589509112 0.03380518719315353
0006e0 ae 6a 41 2f df 2a b5 3f d0 b6 cd 71 70 98 a0 3f
       0.08268542197894632 0.032413019077336735
0006f0 ed ca 04 50 7d ed a1 bf d6 e3 1f 47 b1 15 a0 bf
       -0.035015026109609916 -0.03141550057620861
000700 30 a3 21 ee 62 60 96 3f 25 12 90 3f 66 8f a2 3f
       0.021852060112368565 0.03625030065453342
000710 05 c4 45 0f 3d aa 94 3f 11 2f 06 fa ff 5a 97 3f
       0.020180658394966872 0.022808074603331955
000720 ce f4 84 a9 c7 55 aa bf 8b 72 0e ff 68 b0 92 3f
       -0.0514356989319623 0.01825107628575266
000730 46 89 0b 07 29 32 63 bf e6 66 90 03 5c 53 82 bf
       -0.0023432542151208572 -0.008948057993666447
000740 91 2e 90 85 fa ab a0 bf e6 c2 8e fd 24 83 93 3f
       -0.032562092594244814 0.01905496404259823
000750 19 d4 e9 fd 8e 96 a4 bf fb 35 ed b2 ba 6b 84 3f
       -0.04021117066887587 0.00997110231915154
000760 05 75 cc 29 fe 77 a9 3f 26 a0 fa af ca 23 95 3f
       0.04974359760510975 0.02064434718218435
000770 5d fb 27 09 27 11 9f 3f 3b d7 f2 d4 69 7e 97 3f
       0.030338869031761962 0.02294316637263381
000780 c7 10 1d da e2 30 93 bf f4 3b bb 05 08 dd b3 bf
       -0.018741173327058627 -0.07759142055441243
000790 01 00 c6 66 ef de 9e 3f 6e fb 73 eb 35 98 aa 3f
       0.030147305152695484 0.05194252490217975
0007a0 de a4 a5 5b 4d f2 a5 3f 33 10 8c f3 2f 9b a0 bf
       0.042864243924506815 -0.03243398521411258
0007b0 98 af d8 95 49 fe 8f bf 86 08 b5 57 94 65 7d 3f
       -0.015621733556223025 0.00717695185022838
0007c0 85 c0 fe 6d 36 05 9a bf fb f4 5c b1 6e e7 80 3f
       -0.025410509551591538 0.008253922259991322
0007d0 cc 61 8c 97 47 b3 b7 3f bf eb ba a4 f8 42 b4 bf
       0.09257934045707045 -0.07914690038425841
0007e0 e8 b4 8b 22 50 53 96 bf 73 d0 1c 55 f3 95 96 bf
       -0.021802188976768472 -0.02205639082895101
0007f0 96 5c 7e c7 db 4b 38 3f 38 2e 2d 8d 87 9a 69 bf
       0.00037073245720748696 -0.0031254432191525593

w2 f8 [32, 72]
000000 22 7e e1 60 20 42 be bf d1 0e 9a 13 63 3b c2 3f
       -0.11819650998358402 0.14243734795683463
000010 b7 da 35 42 15 69 c6 bf 28 c5 10 94 e9 24 ad bf
       -0.17508187992981103 -0.05692224438133514
000020 f7 a1 54 81 8d 89 91 bf 25 a7 28 7b 13 20 c9 3f
       -0.017126284617150458 0.196291384826787
000030 7e e9 48 4f 77 54 b1 3f 7f 34 9e 3a ed 42 c0 3f
       0.06769509969391227 0.12704244005400153
000040 18 a9 24 35 03 eb b3 3f 0f 7a 76 cd b5 31 a9 3f
       0.07780475661698849 0.049207383471401404
000050 a5 85 53 85 75 55 b2 bf d4 d1 8c 83 ae 2f b1 3f
       -0.07161650185618969 0.06713381492301745
000060 cf c5 b7 3c 4c 9e b7 bf 54 5c 03 99 b4 f5 94 3f
       -0.09225918276185684 0.020468541945629262
000070 f7 27 c2 7a cd 03 a8 bf 65 48 07 7d 68 35 a7 bf
       -0.04690401195064447 -0.04532934690691163
000080 26 62 2c 07 dd 39 b4 3f 0d 17 e9 53 29 fa ba bf
       0.07900792527323883 -0.10537966059299837
000090 d6 6b a2 ad ab 4e ca 3f ae 09 1b 5f 86 72 ba 3f
       0.2055258367371084 0.1033100111190268
0000a0 77 ab 37 b7 8e c6 a5 bf 37 36 4b 59 67 33 b6 3f
       -0.042530498376286134 0.08672185831093136
0000b0 3c fb cc ec 28 14 c5 3f 8b 03 ce 40 60 56 c0 3f
       0.1646777302030048 0.12763598598760625
0000c0 c7 5c b7 35 1c 40 ca 3f 7d 18 92 9b 4c 87 b4 3f
       0.20508148787368993 0.08018950269806342
0000d0 3b 70 ca 19 fc e4 a5 3f 1b ed 64 16 c3 47 ae 3f
       0.04276264014080807 0.05914125107161735
0000e0 ff a6 9c 9b 25 2e ba 3f 53 1c 8a 4d b1 32 b1 bf
       0.10226664589995592 -0.0671797575288207
0000f0 1e 96 66 4c 97 9d ac 3f f5 8c dc 59 9b 32 c0 3f
       0.05588982398630214 0.12654439819116417
000100 b4 6e 8d 7f de 28 42 bf 2c 91 1f cd ea 32 b6 3f
       -0.0005541883866544057 0.08671443469899448
000110 0b 61 b2 40 6b c7 96 3f 83 ef 35 a3 a4 0e c0 3f
       0.02224509794595612 0.12544687241813443
000120 24 93 76 aa 01 f7 a8 3f f1 2f f8 09 cb 0e c6 bf
       0.04875951009606741 -0.1723264502219304
000130 45 8e a7 b9 6d 38 a4 bf 23 1e 85 31 1e d4 78 bf
       -0.039493016159920326 -0.0060616664343977915
000140 08 a7 db 73 51 fc cc 3f 4a 9b f8 88 17 2f a4 bf
       0.22645013959054716 -0.03942178294192063
000150 ae 3f ea b0 e2 94 b0 bf f2 50 4e 0e 49 86 92 3f
       -0.06477181262221052 0.018090383051075194
000160 34 72 1c c3 cf 24 d3 3f ba 86 62 aa a1 23 be 3f
       0.2991217999822624 0.11773119363581488
000170 b4 23 38 b8 07 cd b8 bf 0e 4d e5 ff 8e 57 7a 3f
       -0.0968785118822229 0.006431158630522361
000180 11 47 e2 51 fc 02 ce bf 6a 25 bc 32 d8 5c b3 3f
       -0.23446611402737763 0.07563544500967159
000190 ef 42 8a f2 03 f4 ca bf 56 73 01 c8 94 42 a9 bf
       -0.2105717596318963 -0.04933609906649987
0001a0 60 4e 1d fb a7 43 b7 bf 51 8c b2 d1 19 31 d5 bf
       -0.09087610131001034 -0.3311218784166999
0001b0 4b 1b ff 49 59 6e c0 bf 6a d4 1e 54 7b cb a6 bf
       -0.12836757767783022 -0.044521192568404214
0001c0 b0 5f 72 48 b9 f8 a5 3f 0c a7 88 45 28 c0 bb bf
       0.04291323670730607 -0.10840083787539018
0001d0 3d a9 c9 69 a9 42 a6 3f a4 b8 2b 02 64 f3 c1 3f
       0.04347733894685966 0.14024019342418115
0001e0 30 b2 f0 4e 44 9a a8 bf 9e 5d 7f 06 cb 56 cb bf
       -0.048051962505585855 -0.21358621423017338
0001f0 d2 ae 26 b9 70 d4 ad bf 52 aa e6 17 a8 b4 d3 bf
       -0.0582614160551579 -0.3079014047058638
000200 11 2e 59 e2 de 00 c3 bf 51 e5 b4 da 2b f4 a3 bf
       -0.14846406986394858 -0.0389722542262897
000210 38 1d f5 02 6b 39 be 3f 20 e3 0a 33 dd 87 b4 3f
       0.11806362936214476 0.08019812103419754
000220 67 3d d6 87 7a c1 b2 3f 69 3e 8d e6 72 2a c3 3f
       0.073264749682712 0.14973293549927583
000230 bc ea 0a b1 6c 2f ae bf 89 9c 9d 48 5c fd a1 3f
       -0.05895557080426303 0.035136112083642486
000240 40 a7 01 45 fd 0d c5 3f 60 5e 8e 9b e9 d2 c4 3f
       0.16448942059951754 0.16268653960718193
000250 1a 65 f6 41 5f 36 bb 3f 8f 9b 1b 71 b2 76 7e 3f
       0.10629840240871538 0.007437417066944798
000260 63 08 14 27 6d 77 cf bf 4d 01 fe e7 4a 2c d2 bf
       -0.24583210380666562 -0.28395340590943335
000270 f9 09 88 73 5b 03 bb bf a8 12 2e 35 3f 4d c1 3f
       -0.10551997728911279 0.135169888464721
000280 a0 f0 2e 52 9e 53 96 bf 59 bd 85 5a ef 2d 77 bf
       -0.021803354040216605 -0.0056590413808942025
000290 13 8b 7a 55 48 e7 84 bf 5a 28 79 c2 de a1 bd 3f
       -0.01020676146373981 0.11575119254953972
0002a0 e1 cd 0a 73 8a f9 b8 3f 82 a2 15 99 80 24 c5 3f
       0.0975576907028919 0.16517646288709292
0002b0 0f 78 80 31 a8 f4 c3 bf 8a 09 8f 04 35 95 bb bf
       -0.15590383927423132 -0.1077454696778998
0002c0 cd e0 19 08 2c 77 8d bf 63 03 10 8a b1 8d a6 bf
       -0.014387458798623598 -0.04404978571256526
0002d0 db ca 14 60 9e 68 b7 3f 03 e2 08 b5 9f a4 99 bf
       0.09144010396702688 -0.025042052673798675
0002e0 4c f0 0e 1e 55 9c a7 3f 2e 1a 21 25 c4 d3 71 3f
       0.046114597243530925 0.004352346602962727
0002f0 f4 e8 06 d9 dc 6f be bf 3a a6 47 c2 a1 28 bb 3f
       -0.11889438913832234 0.10608874314461839
000300 7a 9b 11 26 5d 6e 93 3f 46 b3 85 b2 28 52 a7 3f
       0.018975692223104336 0.045548698227185144
000310 f8 70 d4 73 0a 3a a6 bf b7 71 23 f8 13 3c d4 bf
       -0.0434115663904055 -0.3161668704249467
000320 05 18 b2 b5 76 0d af bf 50 c0 f9 a1 66 d4 c5 3f
       -0.060649594955108944 0.17054446133579626
000330 d3 5a 2c a1 87 07 c2 3f 18 fd b3 d3 d7 fb b9 bf
       0.1408547913531125 -0.10149907034427874
000340 1c a1 bc 3c 19 14 c7 bf 34 ee 12 e1 62 10 b0 3f
       -0.18030086007753077 0.06275003428429998
000350 b0 1e ab 0a 85 ad 97 bf 94 3a cf 16 09 06 ab bf
       -0.02312286260237667 -0.05278042224346283
000360 15 47 c7 ad 11 46 ba 3f 51 4f 87 15 29 0c ba 3f
       0.10263166897427951 0.10174805427169288
000370 fe b5 d7 b3 bc 6d b7 3f 98 dd 74 53 6d 70 b6 3f
       0.09151820555390341 0.08765300071251259
000380 24 f8 10 d2 63 ea a9 bf af 61 62 3d d8 bf 73 3f
       -0.05061637820516321 0.004821629225397236
000390 d8 4f f0 ab 97 83 a2 3f dc 46 39 0d fa 0a 95 bf
       0.03616022085057552 -0.02054968553267754
0003a0 32 76 bd 35 d8 7c 75 3f 29 c0 e0 7a 68 7c d1 bf
       0.005246014184960001 -0.2732182693462187
0003b0 51 82 91 ff 50 59 6d 3f 5e 57 9e 96 8b 88 ae 3f
       0.003582628440696824 0.05963550771336544
0003c0 a9 2d 5f 0d 88 e5 ad bf 47 f6 33 94 82 fa a0 bf
       -0.05839181102018227 -0.03316124018782012
0003d0 1e 55 5c 7a fe ce b4 bf 5b 9f 2e 09 12 0c b4 3f
       -0.08128347861596238 0.07830918049023465
0003e0 fb 20 cc 95 ae f6 c0 bf d4 76 b6 66 13 a1 c4 3f
       -0.13252813638997182 0.16116564288397817
0003f0 5e 48 de 40 ef 46 b4 bf 64 d9 26 52 82 44 bf bf
       -0.07920737584780244 -0.1221391153875167
000400 c4 48 36 98 84 b9 9c bf 29 4b 13 3a 98 48 a2 3f
       -0.02805144480732548 0.03571010312011531
000410 e9 eb ea d4 35 f5 c2 3f 58 6a 01 d6 73 c5 ba bf
       0.14810822388048386 -0.10457538580650672
000420 02 a7 67 67 4b 21 6d 3f 4c 8c e5 4b 30 a9 cf 3f
       0.0035559151394765074 0.24735072809116543
000430 a3 d6 af c5 11 84 b6 bf 06 7f d6 f6 a5 e7 af bf
       -0.0879527194627721 -0.06231421125562346
000440 17 18 d1 e9 07 95 c4 bf 94 b1 34 e5 19 57 ae bf
       -0.16079806248507175 -0.059258279065349445
000450 8e cf bc 0f 41 5b a7 bf 19 ba 63 94 8a 08 af bf
       -0.04561808888538997 -0.060612040151557696
000460 02 df e8 80 7c 5e bd 3f 61 d1 3f 64 65 91 cc 3f
       0.11472299716194459 0.22318713564858242
000470 e1 65 6f 64 bb 65 b6 3f 69 92 ab fa 04 04 9d 3f
       0.08748980714826572 0.02833564548463344
000480 a5 d8 4e ad 9c ef b2 3f 55 de 55 86 88 c9 b8 3f
       0.07396868926193408 0.09682515411065513
000490 45 48 07 ba 13 44 c3 bf 04 76 41 39 a4 92 ad 3f
       -0.15051504691524734 0.05775941084787564
0004a0 1d 49 f4 1c 45 28 c2 bf a8 59 80 fd d7 99 b1 3f
       -0.14185394204884796 0.0687537187480759
0004b0 4f 73 29 28 d8 b9 c6 bf 27 e5 8a 36 2b 7a b4 3f
       -0.17754651986151734 0.07998914796452948
0004c0 1c 7e 4d c4 ce 73 c9 bf 54 25 b7 3b 5d f6 91 bf
       -0.19884667000859302 -0.01754136731122931
0004d0 3e 96 39 8f 94 59 b6 3f 93 99 5a 20 00 2c d5 bf
       0.08730438706114627 -0.3308105770069229
0004e0 4a 93 33 42 10 ba a8 3f 6b 95 ad f4 40 98 a1 bf
       0.0482945519268357 -0.03436472880165805
0004f0 b3 e9 37 9d 70 30 ba 3f b5 79 57 23 f9 4e c7 3f
       0.10230163420047837 0.18209757066411006
000500 be c1 32 f7 85 6f b0 bf b7 1d 82 f4 64 e8 cc 3f
       -0.06420171055902466 0.22584211291198894
000510 e9 4a 1e 8e b8 32 a0 bf 67 85 34 dc 18 0a c5 3f
       -0.03163696989863302 0.16437063934521776
000520 6a 73 bb dc 3d 31 d0 bf b1 76 73 d0 41 53 9b bf
       -0.2530054717624838 -0.026684788081971337
000530 36 1a ec 18 5b d8 b3 bf 4b 51 23 be fe db a3 bf
       -0.07752007826284388 -0.038787804327201934
000540 6f a2 a5 1a 8d c3 82 3f 00 80 e0 a5 32 48 c2 bf
       0.009162046790792659 -0.14282830333195307
000550 30 81 22 2e 19 92 a1 bf 3f 5c 4b 0d e6 d3 97 bf
       -0.03431776703041789 -0.02326926666395601
000560 b2 c6 2c 99 14 64 c4 3f 6e 96 b1 4c c1 45 79 bf
       0.15930421332591532 -0.006170039249899879
000570 d2 72 ac d5 23 30 b3 bf 8f 15 63 f4 4a f6 a6 bf
       -0.07495330778733525 -0.044847814876941
000580 35 e5 f4 d0 e1 94 d2 3f dd 6a 32 f2 a2 8f bd bf
       0.29033704191131743 -0.11547296917926127
000590 ce 32 51 42 04 fb a8 3f 6e 55 6e c6 58 93 c0 3f
       0.048790104956969324 0.1294966668034862
0005a0 f4 c2 b5 2c 82 d9 a2 3f 5f b8 25 a5 30 b8 b8 bf
       0.03681570812012139 -0.09656051666181174
0005b0 83 31 67 b3 5c b3 a7 bf f3 4f 08 b2 30 dc b3 3f
       -0.04629029932002295 0.07757858606811378
0005c0 22 78 ff 57 b0 2f a6 3f a6 90 7b 90 4c c0 bf bf
       0.04333258699601596 -0.12402800109299736
0005d0 1e e8 98 ad 2c ff ca bf 71 2e ab 32 2d 7b c4 bf
       -0.21091230846815362 -0.16000905012184632
0005e0 1a b9 2c 98 2d 80 ce bf 00 64 5f 21 03 99 c3 bf
       -0.23828668527989622 -0.15310706262133067
0005f0 df 86 e8 ec 91 46 ba bf 84 44 74 2a ab 19 a1 3f
       -0.10263931306738126 0.033398961002725464
000600 c7 af 81 a1 ab 29 a1 3f 00 8c b1 1c 41 47 d0 3f
       0.03352104517475101 0.25434902002433546
000610 2c 86 83 9f c7 e9 b0 3f 95 04 73 38 95 68 aa 3f
       0.06606719631556562 0.051579154148847874
000620 14 32 d5 29 f9 f5 ae 3f 2a 6c 5a 4b 1f 29 b0 bf
       0.06047037730840912 -0.06312747564008761
000630 c2 88 66 79 de 85 b6 3f a8 36 3c c2 ce 41 ba 3f
       0.08798017944221484 0.10256664506979496
000640 37 19 36 27 e0 58 ba 3f 85 13 bb 87 b8 7d b3 3f
       0.10291863400752709 0.07613709748973292
000650 a2 a7 b6 fa 78 e1 a7 bf 1f b8 17 f0 46 c0 c5 3f
       -0.046642094235110024 0.16993033145212252
000660 ce cd 0c 32 e1 b3 92 3f d0 ab 5c f9 54 b3 a5 bf
       0.018264311485109812 -0.04238381904573141
000670 ce f8 32 9c 4a 14 b7 3f 9e a8 80 c5 b9 59 c2 bf
       0.09015337289290246 -0.14336321014099423
000680 f8 2a 8e c1 ff 71 ae 3f 6f 3e 51 b5 f2 43 c5 3f
       0.05946349370704768 0.16613611081492105
000690 38 f6 fd fc 64 c1 b1 3f 10 43 d4 c3 ff 93 78 bf
       0.06935721565783914 -0.006000517923226992
0006a0 de 9a b3 33 bc 02 97 3f 48 f7 13 3e 45 93 9f bf
       0.022471371322263838 -0.030835229791583957
0006b0 c3 4f ed 90 67 46 cc bf 37 ab a4 10 c0 26 a3 bf
       -0.22089857651246633 -0.03740501597561379
0006c0 b6 93 07 78 05 60 b4 bf d7 7b 34 29 90 68 a1 3f
       -0.07959016971979235 0.03400087836256887
0006d0 25 cb d1 76 e9 7a c8 bf a2 ec d9 02 bb 89 bd bf
       -0.19125097562535945 -0.11538285083399782
0006e0 25 6b de 85 57 3c c5 3f 2c ca 49 e0 4d 28 7b bf
       0.16590398823321909 -0.0066302339588327035
0006f0 34 01 8e 4a bf 3c c2 bf 4c b3 84 f0 94 13 94 bf
       -0.1424788583790445 -0.019605948619914756
000700 4d f8 41 44 a3 96 2f bf dd d6 51 a9 80 39 ab 3f
       -0.00024100058556436807 0.05317308489695247
000710 98 eb ca ec df 2b 9b bf 82 1b 5e cf d1 be a1 bf
       -0.02653455622451481 -0.03465896278708326
000720 54 29 4d 39 6f e0 c8 3f be 20 9b c7 2a b7 23 bf
       0.19434919641418935 -0.0001504173013045003
000730 c0 90 21 a1 b7 6e a7 bf 3c fd 31 a2 0d 93 b0 3f
       -0.04576658098156505 0.06474385461659876
000740 13 51 58 38 2b 6e 95 3f 6e 44 ee 5d f3 b1 68 3f
       0.02092807322885999 0.0030145409832092384
000750 cd c4 43 f2 c6 da b5 3f d0 f6 68 db 7f 73 b5 bf
       0.08536952414194161 -0.08379363161744924
000760 6a 8d e4 cf c1 bd a8 3f 7c 88 13 77 15 08 8c bf
       0.04832273161653229 -0.013687293716831521
000770 bc 48 b4 54 1c ec a9 3f d5 f0 61 fe 95 df 97 bf
       0.050629506435272614 -0.02331385007026728
000780 c9 dc a0 b6 cf 26 a0 3f d8 14 f1 b4 0b 15 ce bf
       0.031546107333662095 -0.23501726470036632
000790 de 2d c2 f3 2d 57 c2 bf 1f f2 4b d0 8a e1 bd 3f
       -0.14328550722380745 0.11672275147788767
0007a0 63 5a d5 7f 84 22 d3 3f 58 3d b1 bc f0 9f b0 bf
       0.29898178561908234 -0.0649404965090431
0007b0 52 5d 09 fb df a5 ba bf a5 2f 1f 0d eb 32 b5 bf
       -0.10409355048010596 -0.08280819959980919
0007c0 47 a7 f6 e1 79 a6 8d 3f 4d ec e8 e6 a1 fb 90 3f
       0.014477684219702204 0.016584901541346665
0007d0 5d 56 4e 4b ec 23 a0 3f 08 8b 80 d8 3c f7 ab 3f
       0.03152407092345009 0.054620648792726156
0007e0 af ea 55 4e 18 41 ba 3f db 1c 03 92 8e 59 c6 3f
       0.10255577003946813 0.17460806016445116
0007f0 47 01 df 57 8f df c4 bf 84 f6 d8 65 1c 52 6b bf
       -0.16307250776845647 -0.0033350519795750117

w3 f8 [1, 32]
000000 1f e1 de 31 92 ad a1 3f 22 66 3f a3 01 bf b1 bf
       0.03452736719867943 -0.0693207763246382
000010 2f 68 88 c4 48 39 ab 3f 91 78 37 b2 2f a8 d5 3f
       0.05317141913492695 0.33839027790043824
000020 eb 2c cb 33 09 bf c7 3f 23 6d c2 5e 2f 58 b5 bf
       0.18551745442378062 -0.08337684691871465
000030 cc 55 88 d6 22 a8 d7 bf 02 98 40 10 81 9c 94 bf
       -0.3696372122807048 -0.020128265969241006
000040 14 80 46 c7 a0 c6 c7 3f 6b 74 f7 4f f8 3e d2 bf
       0.1857491467499136 -0.28509338196983575
000050 9e ab eb ac ce 0a c4 3f 87 46 aa 91 37 6f d2 bf
       0.1565798134173208 -0.28803815102683256
000060 dc d0 51 f8 f1 b3 c0 bf e5 a6 12 3d 4f 07 b7 bf
       -0.13049149155597817 -0.08995528451000785
000070 44 cc 22 e9 57 d1 9d 3f d4 e4 eb 9e 56 ec e6 3f
       0.029118894199836612 0.7163498977598928
000080 d8 78 21 cb 18 53 c3 bf c9 82 c1 d0 e6 41 cd 3f
       -0.15097341459745084 0.22857365792426368
000090 42 63 d1 ba 06 fb dd 3f d4 a9 87 e3 5c c0 b6 bf
       0.4684464287179716 -0.08887272410326058
0000a0 30 0e 36 9e 8d 94 e5 3f 7b c3 a6 5d e8 2c c3 bf
       0.6743839349805452 -0.14980797360251671
0000b0 a1 9f 8f d2 fa 46 e1 3f 86 a0 b2 91 c1 da e0 3f
       0.539914523365031 0.5267036290797626
0000c0 24 47 f6 5d 02 ff 94 3f 79 d5 83 74 16 ad d8 3f
       0.020504033074366337 0.38556443575301774
0000d0 61 be 1c a4 a0 92 74 3f a1 c1 72 d4 85 57 b0 bf
       0.005022647384791052 -0.06383549153065939
0000e0 3c 9f db 8a 70 f4 b1 bf 4e 99 67 df 22 a1 bb 3f
       -0.07013610258183872 0.107927493612441
0000f0 a6 1a 7d 96 1a 2e cd 3f b5 d5 46 f8 5d f2 d8 bf
       0.22796947811203444 -0.3897929119660504

b1 f8 [72, 1]
000000 60 b9 ee 57 c5 1a e2 bf 2a 08 39 3d d2 75 f3 3f
       -0.5657679288322406 1.2162649528040768
000010 e9 bc b5 87 5b 7f f4 3f 07 ba 03 8d 69 9d d5 3f
       1.2810931492966182 0.33773268481209623
000020 ce b5 07 c8 5c 83 fc bf 28 c8 4c b4 c9 5c c0 bf
       -1.7820709050823669 -0.1278316622133968
000030 9d 2e ae 45 91 71 df 3f 8d 0e 38 34 8a 16 cb bf
       0.4913066082451481 -0.21162536191706174
000040 59 bf 19 20 11 55 ce bf 02 f2 ba d9 4c 97 f0 3f
       -0.2369710356465429 1.0369385247314544
000050 7c 08 1d 34 85 ac f5 bf 9e f9 28 6b d7 cf e7 3f
       -1.3546192203216654 0.7441212742776775
000060 63 55 ac 99 21 08 f4 bf 5b ba 83 07 34 4d f5 bf
       -1.2519851687296402 -1.3313484471833792
000070 aa bb ae 63 dc 13 ef 3f 33 b1 77 cd 00 6d d1 3f
       0.9711744257855248 0.2722780233878154
000080 45 44 da a3 73 0f f9 bf f9 13 b9 ab 55 da ad 3f
       -1.5662723923199036 0.058306386196399225
000090 a9 5f 11 02 b3 53 ec bf da 3b 5f f9 74 82 00 c0
       -0.8852171936405188 -2.063699672907643
0000a0 f3 61 c6 a1 47 85 f0 bf da e6 89 d2 63 02 d5 bf
       -1.0325390166600499 -0.3282708698312554
0000b0 1c 54 e0 63 b4 c2 f2 bf fc d2 5c 88 cc ba ce 3f
       -1.1725353146951027 0.2400756517250996
0000c0 54 f4 86 82 70 54 d5 bf b9 c6 6c 73 a8 05 b0 bf
       -0.33327877756875535 -0.06258633440009022
0000d0 4b f2 ce d8 11 d6 e8 3f 02 a0 11 01 88 2b d9 bf
       0.7761315569437753 -0.3932819376409499
0000e0 c3 b4 c9 f0 f2 c7 f5 3f c6 0f c9 4d bf 03 e6 3f
       1.361315670564452 0.6879574317213091
0000f0 d8 24 c9 1e 69 42 eb 3f 12 e0 9d f2 6a 7e d2 bf
       0.8518567658694804 -0.2889659280112947
000100 ce 6c d8 a9 5d f0 00 40 1f e2 ae c1 59 de e7 3f
       2.1173661488697695 0.7458924086450373
000110 7c d9 b4 94 68 13 e7 3f f2 72 10 61 7a 1f f0 bf
       0.7211192039892889 -1.007685069234125
000120 a3 14 45 76 0e d1 f7 bf 3b 76 f1 96 19 f6 05 40
       -1.4885391826549401 2.7451659958303742
000130 2c aa 8a 30 98 8b f1 bf 3e fd 3d 30 f6 25 01 40
       -1.0965806862028655 2.1435359734456645
000140 df 81 8a 4d 1e e4 fe bf 68 f0 7a 35 92 b6 7a bf
       -1.9306929615923918 -0.006521769646209298
000150 62 65 d0 f4 c5 fa c0 bf 48 35 5a 7d 71 d6 9c bf
       -0.13265299276171577 -0.028161786342527223
000160 f6 3a e0 89 f5 a7 f5 bf e3 dc 84 38 37 26 f3 bf
       -1.353505648210271 -1.1968300063870678
000170 a8 f6 e2 a4 9f fa d2 bf a8 ea cd 1f ab 1b d0 bf
       -0.2965468511791678 -0.2516887484158965
000180 54 82 14 9f ee 29 c8 3f 6c 56 1f 4e 54 d0 cc bf
       0.1887796665914886 -0.2251077062089054
000190 32 8a da 51 f9 24 dd 3f 29 9c bf 5e 5f 2d fb 3f
       0.4553817080833681 1.6985772801506391
0001a0 da 78 62 be f0 01 82 bf 17 81 4b 06 bf 0d cf 3f
       -0.00879276352889884 0.24260700042123837
0001b0 c9 7d db 2e c8 74 e9 bf 03 66 07 9c d0 b0 d9 bf
       -0.7955056109603272 -0.4014169238776903
0001c0 d4 f8 52 9e 8f 9c f7 bf 7e fb c6 be e9 9e fd 3f
       -1.4757229027305145 1.8512971355664543
0001d0 0b 91 35 1e 87 1c eb 3f 14 92 76 66 f4 a1 eb bf
       0.84723239803546 -0.8635198594316216
0001e0 10 e1 23 d9 b1 f9 d2 3f 03 75 1c 25 60 5d cc 3f
       0.29649015622227726 0.22159959613865263
0001f0 21 9c 3f 4d 69 59 f2 3f 5f f4 c2 48 e1 78 dd bf
       1.1468289392012212 -0.46050293069476383
000200 68 56 88 f3 b9 35 e6 3f 2f 57 a9 d9 bd d2 71 bf
       0.6940583950515249 -0.004351369478703223
000210 cc 6a cd a9 c2 f7 ee bf b7 3b a0 aa 73 a5 da bf
       -0.9677441898778283 -0.4163483778256096
000220 97 9e 1d f5 9e 42 f2 bf 43 6a c8 67 ad c0 e4 3f
       -1.1412648749191356 0.6485201861390312
000230 69 d4 11 41 25 de d5 bf bc 62 3a 54 25 8e e8 3f
       -0.3416836867757583 0.7673517842368578

b2 f8 [32, 1]
000000 50 99 e1 7e c5 90 c9 bf 4e bc be ba ff 94 d1 3f
       -0.19973057456372567 0.2747191737825617
000010 75 e0 06 f3 02 4b ea 3f 17 5c 11 2b 43 d2 de bf
       0.8216566797846229 -0.48158339696732483
000020 2a 4e b2 4c fe 28 fd bf d9 19 bc db 9a b7 f7 3f
       -1.822508143993114 1.4823254187955313
000030 a3 14 f3 c5 17 68 ba 3f 84 fb e2 49 38 41 d6 bf
       0.10315083105804716 -0.3477307054089851
000040 f8 70 f9 58 d6 a5 f9 3f 61 80 82 49 f7 67 d0 3f
       1.6029876208841056 0.25634557894409765
000050 c8 d3 db 3a f6 e9 b7 3f 29 c7 e4 03 90 d8 f5 3f
       0.09341372429828632 1.365371718606591
000060 d0 77 76 13 9a 93 c4 3f c2 d8 07 ec c8 b5 f1 bf
       0.16075445127802235 -1.1068810672709763
000070 98 e5 86 75 9d 9a cd bf 47 34 57 4a bb e1 f4 bf
       -0.23128097761745603 -1.3051102546626383
000080 86 d6 02 e0 5a 82 e3 3f d6 74 cf ad ad ad dc bf
       0.6096624732224007 -0.44810049031896193
000090 61 71 03 96 ae e6 e5 bf 7f 34 c2 14 83 c0 02 40
       -0.68440942096235 2.3440000173346216
0000a0 b5 80 98 82 cc ee dc bf de c2 12 14 0f d4 fc 3f
       -0.45207512620437323 1.8017721923935635
0000b0 a0 ec 8b 5c a9 36 e2 bf be 4d 82 11 37 a9 ef 3f
       -0.5691725547361735 0.9894061414692528
0000c0 90 ba e0 e5 37 f5 e3 bf 7d 1c a4 a9 5c 45 ea 3f
       -0.6236838807870573 0.8209670365621516
0000d0 26 d1 18 bd 09 9b f9 bf 0b bb c2 cc d4 2f b6 bf
       -1.6003510843848487 -0.08666734694518767
0000e0 fd 31 7f 87 1d 11 fa 3f 8f 62 9a 62 b2 f9 00 c0
       1.6291785519453008 -2.121922273956734
0000f0 f8 9b 8c b0 0c 11 e3 bf a9 03 24 1d ac 0d e4 3f
       -0.5958312462070117 0.6266689843324588

b3 f8 [1, 1]
000000 2f fd 2a b4 71 37 c7 3f
       0.1813795213438225
