weights.npy (npy, 180128 bytes, 1 tensors)

array f8 [22500, 1]
0	0x3fbbc269fa6494af	0.10843527186496503
1	0xbfc532cd9fa4aab3	-0.16561289115027975
2	0x3f9b0352833359f5	0.026379861123894306
3	0x3fbec6eaa8989592	0.12022272697557515
4	0x3fae1427e57d2805	0.058747526897221326
5	0xbf99d794699147a5	-0.025236433928803276
6	0xbf88b3b6ad0e0fcd	-0.01206152644750338
7	0xbf904af0cf7b7ed6	-0.015910875953408198
8	0x3fb0ca26490858e0	0.06558455737135516
9	0xbfbe5864c9b4f3e2	-0.1185362808655124
10	0x3f95c7f6172fb5c3	0.021270604291137262
11	0xbfbe54ac732e5cf5	-0.1184795170978424
12	0xbfb3b5866879db8b	-0.07698860216792817
13	0xbfa44c3e1f515fb5	-0.03964418537424256
14	0xbfb306fce289fa21	-0.07432537585007327
15	0xbfbcaec2dd482314	-0.11204164411914191
16	0xbfb314f757d2bcc6	-0.07453866857644006
17	0x3fb1a7d75b4d5125	0.06896730402997216
18	0xbfb2ffe5311bdcd2	-0.07421715210863347
19	0x3f9c263a91fca9c4	0.027489581261002774
20	0x3fb0c6ee58430559	0.06553544668988333
21	0x3fc3ca04122ed423	0.1546025360854922
22	0x3fa4c31196af179f	0.04055075611499536
23	0x3fafae7a698c1edf	0.06187803781909706
24	0xbfb0db1de5f08f0d	-0.06584345687639033
25	0xbfa01cdac5ae5195	-0.031470142966244875
26	0x3f7ebb1b6317a8f9	0.007502657871990553
27	0x3fad21263f3b234c	0.05689353486884005
28	0xbfc3eb021f496539	-0.15560938384695946
29	0x3fa0ff70a7161c7d	0.033198852916989964
30	0xbfa181ca440e8d5c	-0.034193344886513016
31	0xbfcab40cf24a47fd	-0.20861970739912286
32	0x3f9ed027f03d38b0	0.030090927160295322
33	0x3fb337269fd899fe	0.07506028559200925
34	0xbfa7f284d07319c9	-0.046772146649846365
35	0xbf96225ac1bc919a	-0.021615427088492824
36	0xbf9b7359649295d2	-0.026807209742988843
37	0x3fc4b7689ebdc919	0.16184718848268956
38	0xbfb0e9a7fdf8c66f	-0.0660653109596525
39	0xbf6d8f4838e6e292	-0.0036083613005895654
40	0xbfb3599fe7eb3c58	-0.07558631336290611
41	0x3fc1213c07e0c08b	0.13382673630394878
42	0xbfaab74740f8396f	-0.05217955272756824
43	0xbf78de9f6ca00e1c	-0.0060716846001045675
44	0xbfa2fb1ead684496	-0.037072142284281615
45	0x3faf9db81d711c9f	0.06175017699620721
46	0xbfc4ca36ac7c3c5f	-0.1624210684026108
47	0x3f8aadfb959d50b2	0.013027158263561798
48	0xbfae8aaac4c8d082	-0.05965169574884134
49	0x3fb379c0bb6d81c5	0.0760765512072857
50	0x3fb91ba8a919deab	0.09807829025691699
51	0xbfb0669a35bed35e	-0.06406558811324944
52	0xbfb7090fe5ab10b9	-0.08998202664503453
53	0x3fb78f92eb088a7a	0.09203451383704389
54	0x3fb80d92f0adf079	0.0939571225735011
55	0xbfb1e692f13d5284	-0.06992452993046966
56	0x3fd0f8838c9c94de	0.265168082538663
57	0xbfc4935424251382	-0.16074611439594483
58	0x3fca98a4b5bea56b	0.20778330682996268
59	0x3fb6fe8afe47ff71	0.08982151706731913
60	0x3fa76caf63d550ff	0.04575107663791477
61	0x3fa7265725d3f4bb	0.04521438919798856
62	0xbfccc696d9445b6a	-0.22481046303502278
63	0xbfc9ba988ed24f94	-0.20100695584971773
64	0xbfa6694cad4d06aa	-0.043772121577160775
65	0xbfa2b721cbd93984	-0.03655343640695022
66	0xbfc8586030549468	-0.19019701347238827
67	0xbfbd6d6037e22a6e	-0.11495019306509288
68	0xbfbc15baff26fce2	-0.10970658044151407
69	0x3fd3dab4c5fb25e5	0.3102237637909567
70	0xbf7e3ebf8a18817f	-0.007384060097621491
71	0x3f5bba0305897d6a	0.0016922978885743575
72	0xbfade09fbd8d545a	-0.058354370011024684
73	0xbf9bb0b84415699b	-0.027041319995399254
74	0x3f9f05e9c61b11d1	0.030295994488158066
75	0xbfa288e39e8f4314	-0.03620063124220088
76	0x3fbb3dd67d5ca099	0.10641232071486896
77	0xbfb5983dc829af55	-0.08435426842487222
78	0xbfaf682e3b533584	-0.061341709844422915
79	0x3fb97af35c4b3440	0.09953232768312237
80	0x3fb8ba35c73e30ec	0.09659134020165866
81	0xbfb11b35554eaf9d	-0.0668214162130298
82	0x3f73cb67cd59d6af	0.004832654454380566
83	0x3fc5ba047474b7e4	0.16973930059742692
84	0x3fbe3d175681ec0d	0.11811967718124113
85	0x3fa2d0483ca913a0	0.03674531689151839
86	0x3fb75810e2bb94db	0.09118752990214622
87	0xbfb73e3086b90955	-0.09079268731242014
88	0x3fb75c608ae289fc	0.09125331297631328
89	0xbfb7aa1be8fcd5f5	-0.09243940771269606
90	0xbfc5c5d0dbc7354f	-0.17009936076503115
91	0xbfbf54de595df63b	-0.12238874131977522
92	0x3fc3e4d70d0f88a9	0.15542114389160602
93	0xbf8d6189e6408952	-0.014346196498142536
94	0x3fa5c5190c336720	0.042519362201075106
95	0x3fa624a942f2cb3d	0.043248452589429644
96	0x3f9aa96598f8ac4f	0.026036822759277375
97	0x3fb35cec58559ae1	0.07563664585687092
98	0x3fccb005ad8d9663	0.22412177061339653
99	0x3fc1abb55ed94445	0.13805262690815048
100	0xbfb6913762855858	-0.08815332560820488
101	0x3fa24210ebaece66	0.03566029431331401
102	0x3f910c950cc5c885	0.016649559883668025
103	0xbf99ee132a445aeb	-0.025322246031545353
104	0x3fcae29b7ebdfb44	0.21004050911502692
105	0x3faf3a4e9ba489f6	0.06099172258315726
106	0xbf86122df7f0a2d0	-0.010776862267520754
107	0xbf9de6029b4ead9d	-0.029197731713492926
108	0xbfc6bc59af9c96c6	-0.17762299608982896
109	0xbfc43847099b2908	-0.1579674527077446
110	0x3f9b67c3e5662cb2	0.026763020397578337
111	0x3fbefe1f778788fd	0.1210651079959781
112	0xbf8017381b6b35a4	-0.00785678704905985
113	0x3fa79696b6eb3dd5	0.04607077582260969
114	0x3fa1387c80158302	0.03363408149266968
115	0xbfaccde96c182606	-0.05625848240385882
116	0x3fc2b31e287e5575	0.1460912416193129
117	0xbfb1699e48ec4fb5	-0.06801785736416728
118	0x3fa5b00a86bec6ba	0.04235871214713201
119	0x3fbf01b5c1afec23	0.12111984232608157
120	0x3f920f504af33742	0.017636541914547672
121	0xbfab1c624048ad10	-0.05295092615809882
122	0xbf668380c9b78496	-0.002748252428987084
123	0xbfc0f2d33784fd91	-0.13241043291962432
124	0x3f520525936d6c73	0.0010998599006686565
125	0xbfac7dd7be8abb0c	-0.05564760399771815
126	0xbfac0123a100546a	-0.05469619121883158
127	0x3f8694590a342b5b	0.01102513849629865
128	0xbfb45480bf09ea01	-0.07941441215545099
129	0x3fca04c65cae0f38	0.20327071690928178
130	0xbf9e47fd53497074	-0.02957149334757543
131	0x3fd0d0ffc4e4704a	0.2627562926079504
132	0xbf965127b0925269	-0.021793956901620257
133	0x3fc57c2bddd7c243	0.1678519089905582
134	0x3fb3386b74b0a5e5	0.07507964705350607
135	0x3fb2b5ca195cab87	0.07308638686360612
136	0xbfb5995da2a41530	-0.08437142582632329
137	0x3f74a01cc9e38a16	0.005035507636622435
138	0x3f6972485c1f4dc8	0.00310625202926371
139	0xbf8dfc832531e23e	-0.0146417852140398
140	0x3fba794c89175db6	0.10341337534861492
141	0x3f9dfd690cdbce1c	0.029286996278598307
142	0xbfb13d5b5e017233	-0.06734248204288278
143	0x3fc35be98a52fe3e	0.1512424397860616
144	0x3fb5718faa52eea3	0.08376405628490118
145	0xbfac66b214d1c5ea	-0.05547100547927271
146	0xbfa3c85850fd6283	-0.038637885939071935
147	0x3fa0a25ca437ea18	0.032488722845261886
148	0x3f9b67468f577d90	0.026761152743231487
149	0x3fb1c1e753031ddd	0.06936498428978362
150	0xbfcebd3ea8cf665e	-0.24015029184993159
151	0x3fcfaac6b33f3ee1	0.2473991751889946
152	0xbfa427d4f7cb14f0	-0.03936639332600034
153	0xbf84be6600d885d3	-0.010128781224071048
154	0xbfb7da12ec11ce68	-0.09317129386345757
155	0xbfc5e82e6d83fe36	-0.17114811274949354
156	0x3fb56afe791b0e7c	0.08366384941751365
157	0xbf82d2702b67b467	-0.009190441441172049
158	0x3fd7f1ea9dd1c0f3	0.3741404095844835
159	0x3fc192ae00106e01	0.1372888088525173
160	0xbfa2145a9c5671b2	-0.03531153829974033
161	0x3fbd013f72791448	0.11330029053449764
162	0x3fb1f172660193ec	0.07009043684372757
163	0x3fc7c43a085cf0a2	0.18567586334564107
164	0x3f8e7c9cb3984cc8	0.014886116247942019
165	0xbfc8e20c1ddc1de1	-0.1943984170722919
166	0xbfb347a0cbae1f39	-0.07531170818958523
167	0xbfb275d71f87731c	-0.0721106006598799
168	0xbfa426062413665a	-0.039352600005895425
169	0x3fb1ce7ed10eab82	0.06955711940706347
170	0xbfb25be79d3a9261	-0.0717148550853124
171	0x3fa2efb8ff2e9441	0.03698518862737688
172	0x3fb33dbda942aa48	0.07516084081968544
173	0xbfae27875e2ffb8f	-0.058895330665101324
174	0x3fa59a234603c6a4	0.042191602989885696
175	0xbfc64183dc82346a	-0.1738743616773804
176	0x3fbb6d2ac6e8f76e	0.10713450771524233
177	0x3fa07ae61cd05c5a	0.03218764402134218
178	0x3f9e0a7f369312e8	0.02933691759678228
179	0xbfbf47c859fdfb52	-0.12218906590531489
180	0x3fc1ce7b9f9f6027	0.13911385816641195
181	0xbf963a409d1f838e	-0.021706590261490848
182	0xbfbc1b3257127957	-0.10978998780999426
183	0xbfb600dfc9c24201	-0.08595083881142075
184	0xbf843653e83f7c17	-0.009869246983667463
185	0x3fcf41bd5e4389c1	0.2441937170288622
186	0xbfbbad64407b2aec	-0.10811449598547157
187	0xbfb0e4d9bd7a4fed	-0.06599198223040022
188	0xbf913ef41f8238f7	-0.01684171144784671
189	0x3fc89e81d113cabf	0.1923372527013125
190	0x3fc7badd23d9678f	0.1853901314778423
191	0x3fad78b0abd8c4de	0.0575614175580854
192	0xbfcd63364e7dd39d	-0.22959021408646843
193	0x3f90170d65699e3d	0.015712937655193427
194	0xbf7cb18b6ed7b5df	-0.007005257282327786
195	0x3f94a440266bf54f	0.020157816262316882
196	0xbfa71f320d735973	-0.04515987791244216
197	0xbfa7adf5028de7be	-0.04624906212025291
198	0xbfaca828e1ec2f2d	-0.055970456674997095
199	0xbfc0be7010975d94	-0.1308116990100926
200	0xbf987e6e6c02e619	-0.023919797270286567
201	0x3f5519a688cf6cd6	0.0012878538429877315
202	0x3fbaa4ce9e5ed7d5	0.10407725683657472
203	0x3fa235233edcfb7a	0.0355616583096809
204	0xbfa648f48784b2e8	-0.043525353949325496
205	0xbfbf1d820067e038	-0.12154400358110784
206	0xbfb7461073a74f6b	-0.09091284583638319
207	0xbfb65f5e5679846b	-0.08739270793150104
208	0x3f9aed5428209672	0.026295962285209425
209	0x3fb7a0b9c89a4851	0.09229622981573128
210	0xbfb71b237a814615	-0.09025785199016696
211	0x3fa64735f01ebbf8	0.043512044488458856
212	0x3fb9c29b2c707882	0.10062570414490504
213	0x3fb8b3a714687d13	0.09649128196950967
214	0x3fc81dee4db16272	0.18841341775511783
215	0xbfa19588e953d493	-0.0343439850638926
216	0x3fb1dc2b1535018e	0.0697657515311276
217	0xbfb43e2d0e3d5f67	-0.07907373044633702
218	0x3fa4d4b51d9b97c3	0.04068532930777693
219	0xbfbf7d1899541856	-0.1230025648438596
220	0xbfc85b19dcdac970	-0.19028018268506797
221	0x3fc7b52d5bdf0671	0.18521658883951234
222	0xbf941c63b2f3c5ec	-0.019639547154786927
223	0x3fbd0a511c131fa3	0.11343867240350262
224	0xbfa5fd75bf082005	-0.042949370927146936
225	0xbfc4aac983d2bfd9	-0.16146201073342928
226	0xbf75d57177399584	-0.005330508447149444
227	0x3f57a95e2bd5c1a5	0.001444189037410928
228	0x3fa641dbfe0f34ff	0.04347121692954125
229	0x3f891edafd01c3a8	0.012265883299024186
230	0x3fc0b0882335a366	0.13038732260909142
231	0xbfa0499948085256	-0.031811513941793976
232	0xbfad3d81eafaed38	-0.05710988992128779
233	0x3f5e3ea88203aa1b	0.0018459935745861525
234	0xbfa2f4d4bfa51509	-0.03702416266836834
235	0x3fd18945f53e4a07	0.27400349568884547
236	0xbfa170438f983e00	-0.03405963065972273
237	0x3fb434f1810ad77b	0.07893285179565439
238	0x3fcff43b3302bc32	0.24964084616428434
239	0x3fb6d3037a2b5616	0.08915731175087446
240	0xbfb050211b847ec2	-0.0637226764852086
241	0xbfa906a0e55900fd	-0.0488786964383525
242	0xbf9cc0b2d85eb4f5	-0.02807883687608111
243	0xbfb457bcd2da0a50	-0.07946376941439692
244	0x3f57d45cc201e86a	0.0014544397199913969
245	0xbfa2aa31b12c4791	-0.03645472800975747
246	0xbfbc8576d5d9cc59	-0.11141150208440943
247	0x3f9b2d201f2a857f	0.02653932752821708
248	0x3fbbb958ad3654ed	0.10829691151441852
249	0xbfa617b085f42580	-0.043149486877221754
250	0xbfc180e7a776c675	-0.13674636532737208
251	0xbf9e5787b5f226d9	-0.029630775909516103
252	0xbfb7c007dac818ce	-0.09277390567158081
253	0x3fb33abd91d57e67	0.07511505899810232
254	0x3f894d75b79c04c7	0.012354774156394644
255	0x3f8d0289d28d8a0e	0.014164997804702952
